social-relationship/ml/models/difficulty_model.pth (torch, 12194 bytes, 5 tensors)

fc1.weight f4 [64, 3]
000000 8e 71 e0 3e 71 ad 44 bd f5 75 00 bf 99 f8 9d be
       0.43836635 -0.04801697 -0.5017999 -0.30853727
000010 26 74 f4 be 26 4b 00 be b1 45 0a bf 26 fd b1 be
       -0.47744864 -0.12528667 -0.5401259 -0.3476345
000020 42 1e 09 3f 8a ba fc be 14 be e7 be 56 b6 67 be
       0.53561795 -0.49361068 -0.45262206 -0.2262815
000030 66 e7 cc be 38 d7 26 3e 9a b8 05 3f bd ea a6 be
       -0.40020293 0.16293037 0.52234805 -0.32600966
000040 fe 08 55 be 55 fb eb be 21 f6 b7 be 04 2d 04 bf
       -0.20804211 -0.4609019 -0.3592997 -0.5163119
000050 23 99 6f 3c 18 2d d6 be 30 01 58 bd fc fd 6b 3e
       0.014623913 -0.4183128 -0.052735507 0.23046106
000060 1c 87 5f 3e 2a e6 c0 be 4a 7a 17 be 19 f8 f2 be
       0.21828884 -0.376756 -0.14792743 -0.47454908
000070 9e 80 cb 3e 80 30 83 bd 7c e5 16 3e 9f 6f 50 3e
       0.39746565 -0.06405735 0.14735979 0.2035508
000080 3e 9a 84 bd 7c 98 a2 3e 9f a7 58 bd 15 9f 08 3f
       -0.06474732 0.3175696 -0.05289423 0.5336774
000090 5d 67 0e bf 54 06 87 3e 02 5a c0 be a2 31 97 3d
       -0.5562647 0.26372015 -0.3756867 0.073825136
0000a0 cc 01 bb bc 45 46 d4 3e c1 18 96 be a1 ff 88 be
       -0.022828005 0.4145986 -0.2931576 -0.2675753
0000b0 54 ca 1d 3e 6d bc ee bd 16 47 ca be 22 26 fa 3e
       0.15409213 -0.11657033 -0.3950736 0.48857218
0000c0 3c 0e 01 bf 98 87 99 bd ac fa 1b 3f 0a 45 11 bf
       -0.50412345 -0.074965656 0.6092937 -0.5674597
0000d0 12 cf af be 1e df d6 3e 65 66 ff bd 29 8d ec bc
       -0.3433767 0.419671 -0.12470702 -0.028875904
0000e0 34 b8 c7 be de 4c bd 3e c4 bd 95 be 2d 4c 82 be
       -0.39007723 0.36972708 -0.29246342 -0.25448743
0000f0 a6 c0 ef 3e dd 77 80 3e 86 6b ec be c4 33 33 be
       0.46826667 0.25091448 -0.46175784 -0.17500216
000100 dc 1e bf bd c0 71 63 3c 65 d6 89 be 58 63 96 bd
       -0.09332058 0.013882101 -0.26921383 -0.07343167
000110 20 6d 18 3d a0 61 c4 3e 6c 3c e9 3e 0f c0 e3 be
       0.037213445 0.38355732 0.4555391 -0.44482467
000120 25 dc 10 bf bc 98 40 3e 40 d9 c8 bc b0 ec cb be
       -0.56585914 0.18808264 -0.024517655 -0.39829016
000130 81 05 e4 bd e4 59 f2 3e c5 4e ac bc b4 d7 da 3e
       -0.11133862 0.47334206 -0.021033654 0.42742693
000140 02 94 a6 3e a7 88 13 bf c0 94 20 bc c6 9e 32 be
       0.32534796 -0.5763039 -0.00980109 -0.1744338
000150 f5 c5 41 be 7c 18 99 3e a7 4b 00 3f 4c 0f 61 be
       -0.18923171 0.29901493 0.50115436 -0.21978492
000160 e9 9e ea be 40 d9 cb 3d 10 82 47 3d 60 1b 3e 3d
       -0.45824364 0.099535465 0.04870802 0.046412826
000170 e4 38 9f be 52 0b bb be a0 4f f2 3d 05 43 a8 be
       -0.31098092 -0.36532074 0.118315935 -0.32863632
000180 d2 31 84 be 2f 63 b9 be 8a 10 0e bf e4 d6 8a be
       -0.2581926 -0.36208484 -0.55493987 -0.27117074
000190 02 f8 e0 be 51 83 a1 be 0c 55 b8 3e da 40 bc be
       -0.43939215 -0.315455 0.36002386 -0.36768228
0001a0 ec d5 f3 bd 38 50 32 be 60 cd ce be e0 a7 a5 be
       -0.11906037 -0.17413414 -0.40391064 -0.3235464
0001b0 40 1e ea 3e fd a9 08 bf 90 37 e1 bd 5c 64 a2 3e
       0.45726204 -0.5338438 -0.10996926 0.31717193
0001c0 c2 12 10 be 20 de a5 bd 13 e6 53 be a4 3f bc be
       -0.14069656 -0.080990076 -0.20693235 -0.36767304
0001d0 4e 86 a6 3d d2 e2 ab 3e 09 ae 04 bf 3c 9a f7 3e
       0.08131085 0.33571488 -0.51828057 0.4835986
0001e0 29 f4 ce 3e 64 ea 5d bd d0 b9 be 3d 24 bb 56 bf
       0.40420654 -0.05417861 0.09312785 -0.83879304
0001f0 73 1c 26 bf 93 e1 2c 3f 18 4e 43 3e d8 cb a8 be
       -0.6488716 0.675317 0.19072759 -0.3296802
000200 50 ab 05 3d 5d f3 5a bf ef 52 30 3e 4e 4e d7 3e
       0.03263408 -0.8552759 0.17219137 0.4205193
000210 11 d2 83 bd 44 54 22 bf 64 44 58 3e 35 4f e8 be
       -0.06436551 -0.6340983 0.21119839 -0.4537293
000220 28 b8 c0 be a0 81 9e 3c aa 24 0b bf 87 30 15 be
       -0.376405 0.01934892 -0.5435282 -0.14569293
000230 04 cd 73 3c a9 38 88 be 04 f8 f9 3e 96 b7 03 bf
       0.0148804225 -0.26605728 0.48822033 -0.51452005
000240 31 c1 28 bf c4 29 2a bf 07 f6 ca 3e 50 0c 03 bf
       -0.65919787 -0.6646998 0.3964083 -0.5119066
000250 be 43 80 3e 98 f7 a4 3d c3 f0 cb bc 6b 52 eb 3d
       0.25051683 0.08055037 -0.024895078 0.11490329
000260 c1 91 eb bd 47 6e 40 be 19 09 cb 3e 30 8a 5f be
       -0.1150241 -0.18792067 0.39655378 -0.21830058
000270 98 c3 5f bd cf 82 b0 3d 29 34 d2 3e 89 52 0b bf
       -0.054629892 0.086187 0.4105542 -0.54422814
000280 68 a6 fc 3e 46 07 e9 be 58 a0 6d be 52 d6 2c be
       0.49345708 -0.45513362 -0.23205698 -0.16878632
000290 38 8c 95 bd ee 86 91 be 63 3f ca 3e 29 b2 7b 3e
       -0.07302135 -0.28423256 0.39501485 0.24579681
0002a0 4d 11 02 3f 68 21 a6 3d 0a 11 e3 be ac a1 2e be
       0.5080765 0.081118405 -0.44348937 -0.1705386
0002b0 a3 78 ac ba 60 18 fd bc ed 1e 13 3e 31 98 44 3d
       -0.0013158511 -0.030895412 0.14367266 0.047996704
0002c0 0a 3d e5 3e e2 eb cd 3e 9b b6 f8 3e 1e 00 91 3e
       0.44773132 0.40219027 0.48576817 0.28320402
0002d0 ba 54 07 3f 42 ae 6d be 1e 70 9d be c0 d0 0f 3f
       0.5286366 -0.23211005 -0.307496 0.561779
0002e0 33 9e f9 be d9 0f a3 be 8b 36 ab be ec 93 a4 be
       -0.4875351 -0.31848028 -0.3344005 -0.32144105
0002f0 3d 9e 1e 3f b4 6a 98 be 1e ad d8 be 60 f0 75 3e
       0.619602 -0.29768908 -0.42319578 0.24017477

fc1.bias f4 [64]
000000 eb c2 0a 3f b4 57 af 3e 7c d4 83 be ba cb c5 3e
       0.5420367 0.342466 -0.2574805 0.38631994
000010 60 ac e4 be 20 89 9e bc c4 53 c9 3e 01 cd 98 be
       -0.44662762 -0.019352496 0.3932172 -0.29843906
000020 78 2c 11 bf 33 4e 0a 3f e6 a5 db be e3 34 17 3f
       -0.5670848 0.5402557 -0.42900008 0.59065074
000030 35 b1 1a 3f d4 4a 9f be 90 3b 51 be 3d dc 03 3f
       0.60426646 -0.31111777 -0.20432878 0.5150793
000040 63 13 f3 bd d7 89 ae be 13 87 a9 3e 80 26 a0 3d
       -0.11868932 -0.34089538 0.33110866 0.07819843
000050 04 59 d9 3e 4a f5 b0 be 68 00 c7 bd 5c bd c6 be
       0.42450726 -0.3456214 -0.09716874 -0.38816345
000060 20 85 dd bc ae 3d 26 3d 72 33 b6 be f2 6a ba 3e
       -0.027041018 0.040586166 -0.35586125 0.36409718
000070 d9 a5 a4 be ea 68 96 be 98 e8 cd 3d 70 a4 be be
       -0.32157782 -0.29376918 0.10054129 -0.3723483
000080 d2 07 a1 3e 3d 66 a8 be b8 df fe 3d ab ab b8 be
       0.3145128 -0.32890502 0.12445015 -0.36068472
000090 44 c1 f0 be de 11 e1 be 8e 7f 06 3f 8c 0a dc be
       -0.4702245 -0.43958944 0.52538383 -0.42976797
0000a0 a5 6d ee bc 77 5e 0c 3f 5a 69 01 be 7a dd 14 3e
       -0.029105017 0.5483164 -0.12637845 0.14537612
0000b0 07 d2 f9 3e 54 fd 7a be 4f c6 10 3f 3a 3d cb be
       0.4879305 -0.245107 0.56552595 -0.3969515
0000c0 40 90 31 3f 90 e5 0d bf 3a 10 91 be 15 a0 8d 3e
       0.69360733 -0.5542841 -0.28332692 0.27661195
0000d0 94 47 83 bd 51 ed ae be 9d 54 9c be 61 50 05 bf
       -0.06410137 -0.34165433 -0.30533305 -0.52075773
0000e0 23 e1 79 3e c0 08 40 3e 07 07 d2 bc e6 d5 96 3d
       0.24402289 0.18753338 -0.025638117 0.07365017
0000f0 db 70 f3 be 18 64 4c 3e e9 1b 8a 3e 79 ee 9a be
       -0.4754704 0.19960058 0.2697442 -0.30260065

fc2.weight f4 [32, 64]
000000 34 12 45 bd 8e a0 83 3d c0 92 ed 3c 00 40 2b 37
       -0.048113063 0.06427108 0.02900064 1.0207295e-05
000010 74 69 a4 bd b2 9e 91 bd 48 47 ee bd 48 c9 f8 bc
       -0.08027926 -0.07110347 -0.116346896 -0.030369416
000020 4c 90 0f 3d 7c 56 d0 3d 20 aa 98 3c 80 76 88 3c
       0.03504972 0.101727456 0.01863581 0.016658068
000030 6e e1 89 3d aa 7f 86 3d ec d7 df bd 00 88 36 ba
       0.067324504 0.06567319 -0.10929856 -0.00069630146
000040 80 a0 eb bc c8 09 94 bc 1c 75 23 3d b4 19 6f 3d
       -0.028763056 -0.01807107 0.039906606 0.05837412
000050 86 da bc bd 0a 77 a1 bd 38 11 bc 3d ca c8 c7 bd
       -0.092213675 -0.07884033 0.09182972 -0.09755094
000060 f2 97 9a bd 62 de f7 bd d8 5b 02 bd f0 6e 36 3c
       -0.075485125 -0.12102963 -0.03182587 0.011134848
000070 b0 c2 21 3c 3c 96 5f bd 42 bc c0 3d 98 d1 d0 bc
       0.009873077 -0.054586634 0.09410907 -0.025490567
000080 6a c2 c5 bd 00 6f 1e ba 86 bd c4 3d 98 ea e3 bd
       -0.09656222 -0.0006043762 0.09606461 -0.111287296
000090 68 83 7e 3d d0 30 9e 3c b4 32 16 3d b4 d3 79 bd
       0.062137038 0.019310385 0.036669448 -0.06099291
0000a0 56 22 e7 bd 78 83 e7 bc 1a de ad 3d 50 cc 22 bd
       -0.11285846 -0.028260931 0.08489628 -0.03974563
0000b0 f0 7b 64 bc f8 07 f9 bd 14 33 0a bd ba d3 e2 bd
       -0.013945565 -0.12159723 -0.03374012 -0.1107554
0000c0 38 be b3 bd 9e 60 ad bd 88 e6 df 3d 94 af 5e 3d
       -0.08776516 -0.08465694 0.10932642 0.054366663
0000d0 96 e4 86 bd 66 36 ba bd 00 b8 19 ba 52 ad d8 bd
       -0.06586568 -0.09092407 -0.0005863905 -0.10579933
0000e0 f0 97 56 3c ec 42 25 bd cc 10 69 bd 40 df 0d bc
       0.013097748 -0.040347025 -0.056900784 -0.008659184
0000f0 8e 4a c6 bd 7c 48 40 3d e0 11 64 bc f4 7b 2f 3d
       -0.09682189 0.046944126 -0.013920277 0.04284282
000100 2b 5c 39 3e 9a 63 b7 3d 30 1d 78 3d 9c 48 ef bd
       0.18101566 0.08954544 0.06057471 -0.11683771
000110 84 bf 3b bd c0 82 e2 bd 10 75 d8 3d 72 a5 e7 3d
       -0.04583694 -0.11060095 0.10569203 0.11310853
000120 68 76 97 3d 79 70 b4 bd 08 2c e6 3c c2 03 ea bc
       0.07395631 -0.08810515 0.028097168 -0.028566245
000130 7a 85 ca be 22 5f a3 bd 0c a6 0b 3d fa 22 47 be
       -0.3955496 -0.079771295 0.0340939 -0.19446936
000140 d3 21 a5 be 2c a5 ea bd 18 a9 a9 bd 1c 11 f7 bd
       -0.32252368 -0.11457285 -0.08284205 -0.1206381
000150 f6 f5 24 3e 20 8a c5 bb 08 37 8b 3c 00 d5 3e bc
       0.16109452 -0.0060284287 0.016994014 -0.011647463
000160 d6 4c c0 bd b5 d7 c1 be f7 bd 24 3e a2 db a3 bd
       -0.09389655 -0.37859884 0.16088091 -0.08000876
000170 ef c9 20 be ac cb f8 bd ec 19 3d 3d 40 ec ec 3b
       -0.15702032 -0.12148222 0.0461673 0.0072303116
000180 22 7a b2 bd 20 9c 91 3b ae 80 ac 3d 48 be c1 3d
       -0.08714701 0.0044436604 0.08422981 0.094601214
000190 74 25 bc bd a0 ee fd bc 0e 57 cf be 3e e5 e3 3d
       -0.09186831 -0.030997574 -0.40496105 0.11127709
0001a0 d2 0f 20 3c b0 b3 e2 be 20 2c 57 bd 00 c9 89 be
       0.009769397 -0.44277716 -0.052532315 -0.26911163
0001b0 c2 05 b5 be 56 87 b5 bd d2 b1 c2 be bc 21 4b 3d
       -0.35355955 -0.08863704 -0.3802629 0.04959272
0001c0 d5 96 51 be 98 80 c5 3c 02 7a b2 3d a8 2d 8b bd
       -0.20467694 0.02410917 0.087146774 -0.067958176
0001d0 9f f2 43 be 96 f6 f0 3d 56 87 f2 bd 2c c9 3c 3d
       -0.19135521 0.117657825 -0.118422195 0.04609029
0001e0 97 47 93 3e c1 0c 9d be 3a bc 02 bb bb cc 0e bd
       0.28765556 -0.30673793 -0.0019948618 -0.034863215
0001f0 9c 84 7d bd cc 9f 97 bd da 9e b7 be d2 86 e6 3d
       -0.061894044 -0.07403526 -0.35863382 0.11256184
000200 b0 5b 1e bd 9a 56 86 bd d4 c6 4e bd 18 0c b9 3d
       -0.03866166 -0.06559487 -0.050482586 0.0903551
000210 7c 18 24 bd 8e b5 e5 3d 52 ee ed bd 3e e3 ef bd
       -0.040062413 0.112162694 -0.116177216 -0.11713265
000220 9e 4d fc 3d 04 f0 84 bc f7 9c 12 3d 61 38 2a 3d
       0.12319492 -0.01622773 0.035794225 0.041557673
000230 e9 73 97 3c 9f 0a 4e bc 54 54 8b bd 95 b3 02 be
       0.018487887 -0.012575774 -0.06803194 -0.12763818
000240 ec 41 8e 3c 46 5d 83 3d 07 02 e7 bd c0 3f 5a 3d
       0.017365418 0.06414275 -0.112796836 0.053283453
000250 43 cd 8c bd 50 b3 3c 3d 80 64 2b 3d 60 21 ec bc
       -0.06875088 0.046069443 0.04184389 -0.028824508
000260 66 f4 d9 3d 7e 2f d7 bd b7 60 ac 3c f8 69 47 3d
       0.106423184 -0.10507105 0.021042211 0.048685044
000270 6a 08 35 be 20 11 c7 bb a0 51 3c bc 7e 4c de 3d
       -0.17678991 -0.0060750395 -0.01149407 0.108544335
000280 18 85 0a 3d 4a 6b eb bd f0 e2 7f 3d d0 56 23 3c
       0.033818334 -0.11495073 0.062472284 0.009969428
000290 aa ca c5 3d 70 79 be 3c 71 ce b7 bd c0 a6 aa 3b
       0.09657796 0.023251265 -0.089749224 0.0052078664
0002a0 ab f6 3c 3b e9 de 5e bd 5e b7 86 3d bf ef 05 be
       0.002883355 -0.054411802 0.06577943 -0.13079737
0002b0 af 93 0e be f8 32 64 3d e6 ac 80 bd a6 eb e8 bd
       -0.13923524 0.05571267 -0.06282978 -0.11373071
0002c0 b0 d7 1c be b0 27 46 bc 23 7f c8 bd 8d ce 2c be
       -0.15316653 -0.012094423 -0.097898744 -0.16875668
0002d0 2f fa 58 3d d6 5b 92 3d 00 01 af bc 54 99 4e 3d
       0.05297297 0.071464226 -0.021362782 0.050439194
0002e0 77 3a e1 bd 7d 55 e7 b9 56 b1 2f be 9f 51 10 3c
       -0.109974794 -0.00044123447 -0.17157492 0.0088085225
0002f0 7a 88 ae 3d 3c 82 94 3d e1 6c b8 bc 24 bb ad bd
       0.085221246 0.07251403 -0.022512855 -0.0848296
000300 25 89 58 bd dc df 11 bd b4 7a 98 3d b8 1c ed 3d
       -0.052865166 -0.03561388 0.07445279 0.11577743
000310 a8 6a 69 bd 00 d9 8f bb 0f 6c 2f 3c ae dd a3 3d
       -0.05698648 -0.004389882 0.0107069155 0.080012664
000320 7c 04 f7 bd 0d 71 7a 3a 38 f1 d6 3c b6 1c 08 3e
       -0.12061402 0.0009553589 0.026238069 0.13292202
000330 89 7d cc 3d e6 eb 81 bd 80 af 26 3b 3b fb 65 3d
       0.099848814 -0.06343822 0.0025434196 0.056147795
000340 6b 8f a0 3e 8c 02 4d 3d d2 37 91 3c c8 27 e3 bc
       0.3135942 0.050051257 0.017726813 -0.02772893
000350 58 e6 d2 3c 00 27 42 bd 5c a9 e5 3d ba 7e 99 bd
       0.025744602 -0.047400475 0.11213943 -0.07494874
000360 7c b3 40 bd b4 c8 0e 3e b6 c5 e3 bd 9c ce 66 bd
       -0.04704617 0.1394375 -0.11121695 -0.05634938
000370 95 de 6b 3d 98 31 9b bd f2 42 9f bd 34 f2 c8 bd
       0.057585318 -0.07577819 -0.07776441 -0.098118216
000380 c2 f7 ae 3d b6 16 cf bd d0 9e 24 bc 6c 60 09 3d
       0.0854335 -0.10111754 -0.0100476295 0.03353922
000390 60 9c d4 bd a8 c7 ea bd b3 0f 77 3e a2 57 bd bd
       -0.10381389 -0.11463863 0.24127083 -0.0924523
0003a0 c7 6c 57 3c f1 4b bb 3e b0 26 d4 3d b5 08 12 3e
       0.013148493 0.36581376 0.103589416 0.14261134
0003b0 91 1a 68 3e ea a7 9b 3d 69 fe 09 3e b0 09 1d 3c
       0.22666384 0.076003864 0.13475956 0.009584829
0003c0 c5 b0 2f 3f 4a f6 ab 3d a2 e6 2d 3e f4 47 9f 3d
       0.68629104 0.08396585 0.1698251 0.07777396
0003d0 f7 aa 55 bd 50 ca 00 3c 32 46 c9 bd 37 50 bf 3c
       -0.052164998 0.007860735 -0.09827842 0.02335368
0003e0 9c 3a 58 bd 7f d3 f9 3d 80 17 9a bd 07 7f 16 3c
       -0.05279027 0.12198543 -0.075240135 0.009185559
0003f0 0e 06 ab 3d 20 d8 1f 3c aa 0e 0f 3e a4 a4 21 bd
       0.08350764 0.009756118 0.13970438 -0.039463654

fc2.bias f4 [32]
000000 f8 68 41 bd d4 67 8d be 75 26 33 be 03 3f aa 3a
       -0.047219247 -0.27618277 -0.17495139 0.001298875
000010 de a8 fe bd 79 42 4f bb d7 7f 2a 3e 0e 1d 36 bb
       -0.124345526 -0.0031625314 0.1665033 -0.0027788314
000020 46 a1 1b 3e 92 a4 55 bc 02 a2 ba 3d d6 65 23 3d
       0.1519824 -0.013039725 0.09112932 0.03989204
000030 d4 19 80 3d cf 54 a1 bd 6c 99 39 bd 7f d6 8b bd
       0.06254926 -0.07877504 -0.04531233 -0.06828021
000040 21 49 42 bc 17 80 d2 bd 00 b4 3c b9 44 ec 4b bd
       -0.011858256 -0.102783374 -0.00017996132 -0.049785867
000050 8b 90 5f 3e b2 3d 67 3e 61 8d 0a be d2 ad 5b 3e
       0.21832483 0.22582129 -0.13530494 0.21453026
000060 56 ed 9f bd a1 09 a0 3c 64 12 f2 3d 40 1b 4e bd
       -0.0780894 0.019535841 0.11819914 -0.050318956
000070 e7 3e 08 bd b8 bd 7a bd db 6c 61 bd 20 f8 b8 bc
       -0.033263113 -0.061216086 -0.055035453 -0.022579253

fc3.weight f4 [1, 32]
000000 f2 ab d3 bd 71 24 9c be 4f 58 33 3c de 27 39 3e
       -0.1033553 -0.30496553 0.010946347 0.18081614
000010 b0 4e 05 be 17 09 f5 bd 22 be 5f 3e 70 8b 82 bd
       -0.13018298 -0.119646244 0.21849874 -0.06374252
000020 ac ea 25 3e 8a ac 42 3e 5c f3 04 be 00 34 3b 3e
       0.16202801 0.19011131 -0.12983459 0.18281555
000030 9a cd f1 3d 50 cc 1b bd 20 b0 2a bc 66 66 a5 bd
       0.118067935 -0.038036644 -0.010417968 -0.080761716
000040 de 9d 8a 3e d9 98 4e 3d 9a 6f 9e bd 06 62 9f 3d
       0.27073568 0.050438736 -0.0773613 0.07782368
000050 d9 5e 87 3e 65 79 8a 3e ce 22 9f 3d d5 87 80 3e
       0.2643955 0.27045742 0.0777031 0.25103632
000060 da 92 bc 3d ae 93 d5 bd 35 a2 7e 3e 62 f5 8a bd
       0.09207697 -0.10428558 0.24866565 -0.06785084
000070 1b 5a 2b bc 10 33 bb 3c d3 4b c0 bc 5b a2 64 3d
       -0.010458495 0.022851497 -0.023473656 0.055818897
